model.tflite (tflite, 398996 bytes, 10 tensors)

sequential_2/conv2d_3/Relu;sequential_2/conv2d_3/BiasAdd;sequential_2/conv2d_3/Conv2D;sequential_2/conv2d_3/BiasAdd/ReadVariableOp f4 [16, 3, 3, 3]
0	0x3a2a363a	0.0006493066
1	0xba286240	-0.0006423332
2	0x3a02b047	0.0004985374
3	0x3a10622b	0.0005507792
4	0x398bbd1b	0.0002665304
5	0x39ab6303	0.0003268943
6	0x39f1ff44	0.0004615729
7	0x39f0b514	0.0004591128
8	0x394e7d56	0.00019692382
9	0xb885d606	-6.381799e-05
10	0x3a6a6aa4	0.00089422823
11	0x3a919953	0.0011108316
12	0x3a19b9ba	0.0005864162
13	0x39f6019f	0.00046921984
14	0xb76a6436	-1.3970819e-05
15	0x39872644	0.00025777717
16	0xb9199b64	-0.00014649105
17	0xba294070	-0.00064564403
18	0xb9e5158c	-0.00043694337
19	0x3a5cbcd8	0.0008420474
20	0xb76514ea	-1.3654333e-05
21	0xb929a743	-0.00016179406
22	0xb9bc4ab8	-0.00035913824
23	0xba5a58b3	-0.0008329257
24	0xbaaf0c24	-0.0013355059
25	0xbad3ad27	-0.0016149626
26	0xbabe44b4	-0.0014516325
27	0x38d2ac6f	0.000100456986
28	0x3a89cd3e	0.0010513437
29	0x3a423431	0.000740829
30	0x39a7e468	0.00032022898
31	0x39df7bfe	0.00042626256
32	0x3923124b	0.00015551706
33	0x3a489b80	0.0007652566
34	0xb8b6c825	-8.715716e-05
35	0x396e1859	0.00022706519
36	0x39f61e39	0.00046943294
37	0x3924eb8e	0.0001572801
38	0xba0ebfe2	-0.0005445463
39	0xb8225c1e	-3.87096e-05
40	0x3a5f6033	0.00085211097
41	0x3a1c5314	0.00059633073
42	0x3a91d67b	0.0011126542
43	0x3a8dd2e9	0.0010820302
44	0x3980a7d4	0.00024539104
45	0xbaa6b610	-0.0012719054
46	0xba198076	-0.0005855629
47	0xbaa5cf3b	-0.001265026
48	0xbaa8f76c	-0.001289112
49	0xba8f5639	-0.001093573
50	0xbabddcd8	-0.0014485372
51	0xb9ef85e0	-0.00045685377
52	0xba09cda3	-0.00052567775
53	0xb99ef10f	-0.0003031571
54	0x375fc609	1.3337944e-05
55	0x37b847d3	2.1967955e-05
56	0xb837441f	-4.3694043e-05
57	0x39bf8571	0.0003652978
58	0x39598516	0.00020744311
59	0x39a208d4	0.00030905625
60	0x3a1b514a	0.0005924894
61	0x38710a11	5.7468253e-05
62	0x39b0965d	0.00033681365
63	0xbaac1abf	-0.001313053
64	0xba2fa37f	-0.0006700083
65	0xbaaf0d68	-0.0013355436
66	0x3a21e564	0.00061758445
67	0x39c2d3ad	0.00037160274
68	0x39676cb0	0.00022070366
69	0x38a0a3fb	7.659938e-05
70	0x3a5f61d1	0.00085213507
71	0xb93a2b45	-0.00017754461
72	0xba3acaf7	-0.0007125581
73	0xba707967	-0.0009173364
74	0xba037452	-0.00050145865
75	0x3a10586e	0.0005506341
76	0xb9f66612	-0.00046996825
77	0x39ba9b12	0.0003559222
78	0x3a8cc508	0.0010739872
79	0x39e10356	0.0004291783
80	0x38dd49a7	0.0001055182
81	0xb9b8021e	-0.00035096792
82	0x39e8e31b	0.00044419695
83	0x3a2db180	0.0006625876
84	0x3a06d651	0.000514363
85	0xba05a35e	-0.0005097891
86	0x3943097f	0.00018600187
87	0x38a2b17a	7.7578195e-05
88	0xb9afe280	-0.00033547357
89	0xb9c3860e	-0.00037293177
90	0x39929c6b	0.0002796383
91	0xb9ce9569	-0.000394027
92	0x39cb0490	0.00038722577
93	0xb9d0b311	-0.00039806266
94	0xb9997a75	-0.00029273672
95	0xb9f6afc2	-0.00047051726
96	0xb9608f24	-0.00021415629
97	0x39acef31	0.00032984608
98	0x39ade3f0	0.00033166958
99	0x3912efcb	0.00014012975
100	0x39a0a479	0.0003064012
101	0x39e032fc	0.00042762596
102	0xb8bb2a75	-8.924763e-05
103	0xba1538e6	-0.00056923775
104	0x3a51064f	0.00079736573
105	0xb9bacd70	-0.00035629747
106	0x3a18e5a3	0.00058325584
107	0xb894dcb5	-7.0983e-05
108	0xba4822a1	-0.00076345546
109	0xb9d1c8cd	-0.00040013195
110	0x38b10324	8.440603e-05
111	0xbac56d1d	-0.0015062426
112	0xba3c9331	-0.0007193564
113	0xba584d59	-0.0008251272
114	0xb9e40ff2	-0.0004349943
115	0xba548b36	-0.0008107902
116	0xb9ee8757	-0.00045495734
117	0x3a8c7e70	0.0010718834
118	0x3a889a0a	0.0010421884
119	0x3a0f7de5	0.0005473777
120	0x37e4c219	2.7270102e-05
121	0xb9d734eb	-0.00041047423
122	0xba1fd7c8	-0.00060975226
123	0xba84e8ed	-0.0010140218
124	0xba2083af	-0.0006123138
125	0xba2dcf05	-0.00066302746
126	0xb96bb595	-0.00022478991
127	0x3986a69e	0.0002568261
128	0x39e9b691	0.00044577246
129	0x3aa7b2a3	0.0012794327
130	0x3aa6c8f8	0.0012724688
131	0x39c1943a	0.00036922266
132	0x3a47bf8e	0.00076197914
133	0x39da2350	0.0004160651
134	0x3a6cbd7a	0.000903092
135	0xba8557a6	-0.0010173216
136	0xbaa16d20	-0.0012315847
137	0xba7efa35	-0.0009726615
138	0xba689af5	-0.0008873188
139	0xba5c6353	-0.00084071344
140	0xba78af3c	-0.0009486561
141	0x3a22059b	0.0006180645
142	0x39ce18b1	0.00039309778
143	0x3aa10edc	0.0012287754
144	0xb9ffba12	-0.00048776023
145	0xbaa1f8a2	-0.0012357424
146	0xb9842754	-0.00025206304
147	0xb9e7b9bd	-0.0004419814
148	0xb969b3a1	-0.00022287529
149	0x3985908b	0.0002547543
150	0x3a1b1261	0.00059155194
151	0x39867007	0.0002564194
152	0x3a967aa7	0.0011480645
153	0xbadef1ee	-0.0017009357
154	0xba32e481	-0.0006824211
155	0xbabb0ed3	-0.0014271386
156	0xb91fbd06	-0.00015233838
157	0xba95e311	-0.0011435469
158	0xba8eb4c8	-0.0010887617
159	0x3a90ba6b	0.0011041885
160	0x3a3a5228	0.0007107579
161	0xb84c831d	-4.87595e-05
162	0x38971473	7.20405e-05
163	0x3982cb55	0.00024947026
164	0xba76b9d1	-0.0009411844
165	0xba1663c0	-0.000573691
166	0xba7e62e2	-0.0009704066
167	0xba1fc3f4	-0.0006094568
168	0xb97cc241	-0.00024104958
169	0x391db4c7	0.00015040032
170	0x399f34ec	0.00030366273
171	0x3a00d65f	0.0004914756
172	0x3a19cfb0	0.00058674347
173	0x39c45a41	0.00037451278
174	0x398279a3	0.0002488616
175	0x39ff9ae1	0.00048752784
176	0xba054d7a	-0.0005085092
177	0xba24bf22	-0.00062845845
178	0xb9a68555	-0.00031761327
179	0x399cf0d3	0.00029934067
180	0xb9fae3db	-0.0004785348
181	0xba44b88e	-0.00075043074
182	0x393c8c73	0.00017981399
183	0x3982bf91	0.0002493826
184	0x385cb063	5.261636e-05
185	0xba2cf881	-0.0006598309
186	0xb9dda456	-0.00042274845
187	0x387d29b6	6.0358747e-05
188	0xba722215	-0.0009236646
189	0xba2d4f8d	-0.000661128
190	0xba09a9fc	-0.0005251465
191	0xba2d4e2c	-0.0006611075
192	0xba533987	-0.00080575835
193	0xba70dc50	-0.00091881026
194	0xba56e52d	-0.0008197602
195	0x3a31f237	0.0006788107
196	0xb9eb5f5d	-0.00044893744
197	0xb98132d5	-0.0002464267
198	0xba80d1c2	-0.0009828138
199	0xba2a7c96	-0.000650355
200	0xba3faff8	-0.0007312293
201	0xb7fdd1d9	-3.0257668e-05
202	0xb97234a6	-0.00023098532
203	0x3685425f	3.9714355e-06
204	0x3a7bab05	0.0009600374
205	0x3a17915c	0.0005781853
206	0x3a97a2eb	0.0011568939
207	0x399e1797	0.00030153684
208	0x3a0568b8	0.00050891517
209	0xb781b6ad	-1.5463063e-05
210	0x3a9a21ab	0.0011759301
211	0x39c6f1f3	0.0003794577
212	0x3a293714	0.00064550457
213	0x3a1b182e	0.0005916384
214	0xb7d4cd3e	-2.5367943e-05
215	0x3a092ea6	0.00052330864
216	0x398c8de6	0.00026808603
217	0x3a41cf40	0.00073932484
218	0xb71faaf0	-9.516938e-06
219	0xb9e5df6d	-0.0004384475
220	0x37b5f3d1	2.1690417e-05
221	0xba58ce61	-0.0008270499
222	0xbae405ad	-0.0017396711
223	0xbaf645b7	-0.0018789087
224	0xba412928	-0.00073684985
225	0x3a28d52c	0.00064404565
226	0x3a5ff42f	0.0008543161
227	0x3a3d9b88	0.0007232954
228	0xba648eb1	-0.00087187724
229	0xba13a147	-0.0005631637
230	0xba5dccdd	-0.0008461008
231	0xba516bdf	-0.00079887913
232	0xb9fe515f	-0.00048507281
233	0xbaaf93ed	-0.0013395526
234	0x39f885b1	0.00047401854
235	0x3a792d2e	0.00095053285
236	0x39c43402	0.00037422782
237	0x3904747a	0.00012631892
238	0x3a7ab49b	0.00095636555
239	0xb773156d	-1.4488917e-05
240	0x3911ab26	0.00013892035
241	0x38aa3fe9	8.118136e-05
242	0xba0669a7	-0.0005127438
243	0x3a0e7452	0.0005434203
244	0xb89867f1	-7.2672854e-05
245	0x39334030	0.00017094682
246	0x3a792790	0.00095044915
247	0xb904c73a	-0.00012662719
248	0x38e02fae	0.000106900334
249	0x39696b10	0.00022260495
250	0xba2d5af1	-0.00066129776
251	0xb9f2fb2e	-0.0004634498
252	0xb97a2e26	-0.0002385905
253	0x38b993bd	8.849006e-05
254	0x39c3ac53	0.0003732169
255	0x3a1fd554	0.0006097157

sequential_2/conv2d_3/BiasAdd/ReadVariableOp f4 [16]
0	0xbcd0c610	-0.025485069
1	0x3c208f0f	0.009799733
2	0xbc5cd974	-0.013479579
3	0xbde04ffd	-0.109527566
4	0xbbdc7a99	-0.006728482
5	0x3ca630d1	0.02028695
6	0xbd5f415d	-0.054505695
7	0xbb49bf97	-0.0030784362
8	0xbc26a948	-0.010172196
9	0xbb039ce6	-0.0020082532
10	0xbd674369	-0.05646077
11	0x3dd0c618	0.101940334
12	0x3d6fd75a	0.058554985
13	0xbcb1dcfd	-0.02171182
14	0xbc5d596e	-0.013510091
15	0xbc56017d	-0.013061878

sequential_2/conv2d_4/BiasAdd/ReadVariableOp f4 [32]
0	0x3d4cac36	0.04996892
1	0x3d991ed4	0.07476583
2	0x3c839f98	0.016067311
3	0xbd3b8770	-0.04578346
4	0xbcc28cf8	-0.02374886
5	0xbcce6d38	-0.025198564
6	0xbca8ce77	-0.020606263
7	0xbd17ca12	-0.037057944
8	0xbca8443c	-0.02054035
9	0xbd7adca5	-0.06124558
10	0x3d8a863d	0.06763885
11	0xbd798a35	-0.06092282
12	0xbd232d42	-0.039838083
13	0xbdc54be1	-0.096336134
14	0xbe1a376c	-0.15060204
15	0xbbe3d676	-0.006953056
16	0xbd882cd8	-0.06649178
17	0xbcbd70a9	-0.02312501
18	0xbd295a6a	-0.04134599
19	0xbd0abbad	-0.033870388
20	0xbd51f76f	-0.05126136
21	0xbbe384de	-0.0069433292
22	0xbccab134	-0.0247427
23	0xbcf8a149	-0.030350344
24	0x3de5f3d6	0.11228149
25	0xbd9bcd29	-0.076074906
26	0x3c6d8eae	0.0144993495
27	0xbdfd0d1e	-0.123560175
28	0xbe079309	-0.13239683
29	0x3d9c1a7c	0.07622239
30	0x3add1622	0.0016867558
31	0x3b54b467	0.003245616

sequential_2/conv2d_5/BiasAdd/ReadVariableOp f4 [64]
0	0xbda8553e	-0.08219384
1	0x3db3bc1f	0.087761156
2	0xbdeff395	-0.117163815
3	0xbe35dd3f	-0.1776018
4	0xbdf7a0cf	-0.12091219
5	0xbd9b32e1	-0.07578064
6	0x3d00eceb	0.031475943
7	0x3d1dbce6	0.038510226
8	0xbc10774d	-0.008817506
9	0xbdbaa128	-0.09112769
10	0xbe069846	-0.13144025
11	0xbdc6fdd5	-0.09716383
12	0xbe203846	-0.15646467
13	0xbe060b42	-0.13090232
14	0xbde2e014	-0.11077896
15	0xbdb415a1	-0.08793188
16	0xbdded8bc	-0.108811826
17	0xbdb88ff4	-0.09011832
18	0xbe402cd7	-0.18767105
19	0xbdea2897	-0.11433523
20	0xbdb38747	-0.087660365
21	0xbde8cb32	-0.113668814
22	0xbd53e69f	-0.05173361
23	0xbd7fd0da	-0.062455036
24	0xbcfe557a	-0.031046618
25	0xbddb00c1	-0.10693503
26	0xbe720837	-0.23635946
27	0xbd7a8476	-0.06116148
28	0xbcb9c5f4	-0.0226774
29	0xbd90244f	-0.07038175
30	0xbcc430ef	-0.023949115
31	0xbcc5b031	-0.024131866
32	0xbaa7746e	-0.0012775788
33	0xbd8b332c	-0.0679687
34	0xbdd3ed73	-0.10348024
35	0xbd6d8cbd	-0.057995547
36	0xbced0dff	-0.028937338
37	0xbe66ec36	-0.22551045
38	0xbdfb51db	-0.12271472
39	0xbdf7f830	-0.12107885
40	0xbe1359cc	-0.14389724
41	0xbd09c28e	-0.033632807
42	0xbcd5b560	-0.026087463
43	0xbdc0db3b	-0.09416815
44	0x3cc54e28	0.02408512
45	0x3b03c45d	0.0020106055
46	0xbd9a7c62	-0.075432554
47	0xbd589485	-0.052876014
48	0xbe3427b2	-0.17593268
49	0xbe17c001	-0.14819337
50	0xbdf1e69c	-0.118115634
51	0xbdf15757	-0.11784237
52	0xbc8a88a6	-0.016910862
53	0x3da62e17	0.0811426
54	0xbe2bbea7	-0.16771947
55	0xbda36698	-0.079785526
56	0xbcf855ae	-0.030314293
57	0xbcae5e17	-0.0212851
58	0xbd265142	-0.040604837
59	0xbc5e6013	-0.013572711
60	0xbe1cf9b4	-0.15329629
61	0x3ca29efc	0.0198512
62	0xbd58d490	-0.05293709
63	0xbd10eb21	-0.035380486

sequential_2/conv2d_4/Conv2D f4 [32, 3, 3, 16]
0	0x3d79c720	0.060980916
1	0xbbebf3b7	-0.007200684
2	0xbcf4467a	-0.029818762
3	0x3de5de68	0.11224061
4	0x3d2f9435	0.04286595
5	0x3e9978f6	0.29975098
6	0x3e301419	0.17195167
7	0x3d2c2a62	0.042032607
8	0x3d934e0e	0.07192622
9	0xbdd4ab17	-0.10384195
10	0xbc97ad4e	-0.018515255
11	0x3dd3c777	0.10340779
12	0x3e45c605	0.1931382
13	0x3e2f16dd	0.17098565
14	0x3d9ea0c6	0.07745509
15	0x3db309df	0.08742117
16	0x3d94fb97	0.072745495
17	0xbd5155eb	-0.05110733
18	0x3e7d804f	0.24755977
19	0x3dfbe680	0.12299824
20	0xbd299dac	-0.041410133
21	0x3f02b0c0	0.5105095
22	0x3d317511	0.043324534
23	0x3c95aa53	0.018269693
24	0xbcec7452	-0.02886406
25	0x3e67997f	0.22617148
26	0xbd3a749a	-0.045521356
27	0x3e5e03ee	0.21681187
28	0x3df70ea4	0.12063339
29	0xbd88ebf5	-0.0668563
30	0xbe7e6945	-0.24844845
31	0xbd76a81a	-0.060218908
32	0x3d87ae62	0.06625058
33	0xbe0ca668	-0.13735354
34	0xbe8918d7	-0.26776764
35	0xbd903ebe	-0.07043217
36	0xbec8cb73	-0.3921772
37	0xbd941200	-0.07229996
38	0x3d286c62	0.041118987
39	0xbe45c882	-0.19314769
40	0x3e246893	0.16055517
41	0x3d72c488	0.059269458
42	0x3dacfef2	0.084470645
43	0x3d62f21b	0.05540667
44	0xbe62ccf8	-0.22148502
45	0xbdd2c131	-0.102907546
46	0xbebc8f60	-0.36828136
47	0xbe09ff7e	-0.13476369
48	0x3badfa20	0.0053093582
49	0x3e73691f	0.2377057
50	0xbe126b4b	-0.14298742
51	0x3e069878	0.131441
52	0x3dd85b44	0.105642825
53	0x3e1d1c43	0.15342812
54	0xbcb8b830	-0.022548765
55	0x3d13b7ee	0.03606408
56	0xbb413a92	-0.0029484374
57	0x3d5fb0e2	0.054612048
58	0x3e3f33dc	0.18672127
59	0x3dcb7a4f	0.09935438
60	0x3e184b6d	0.14872523
61	0xbc8bb271	-0.01705286
62	0x3e84e75f	0.25957772
63	0x3da35fe6	0.079772756
64	0x3d54ab1d	0.051921
65	0x3d1b79b0	0.037957847
66	0xbe969267	-0.2940857
67	0xbd9eede8	-0.07760221
68	0xbe986c60	-0.29770184
69	0xbe1b6d8b	-0.15178506
70	0xbe1456d7	-0.14486252
71	0xbeafef31	-0.34362176
72	0xbd99827a	-0.074955896
73	0x3de57ee8	0.11205846
74	0x3dd72166	0.10504417
75	0x3e7b8556	0.24562582
76	0xbd150094	-0.036377504
77	0xbe0ef3d5	-0.13960202
78	0xbdb1bf5f	-0.08679079
79	0x3d526a7e	0.05137109
80	0xbdad2427	-0.08454161
81	0xbe0b9afe	-0.13633344
82	0xbe33f307	-0.17573176
83	0xbe272650	-0.16323209
84	0xbe1e644e	-0.1546795
85	0xbd177e98	-0.036985964
86	0xbe417de5	-0.18895681
87	0x3d78a5e5	0.060705084
88	0xbda3ca66	-0.07997589
89	0xbda9dc1c	-0.08293936
90	0xbe06aec8	-0.13152611
91	0x3e88ee3e	0.26744264
92	0xbf21bcd2	-0.6317874
93	0xbe95e799	-0.29278257
94	0xbeeed448	-0.46646333
95	0xbe1acaa4	-0.15116364
96	0xbda29ee8	-0.07940465
97	0x3e6e05db	0.23244421
98	0xbea73873	-0.32660255
99	0xbde5a4d8	-0.11213082
100	0xbad2d99d	-0.0016086582
101	0xbec4f0af	-0.38464877
102	0xbe0802ae	-0.13282272
103	0xbdaf46a5	-0.08558396
104	0xbe4f4d28	-0.20244277
105	0xbdfc987b	-0.12333771
106	0xbcd3766f	-0.02581331
107	0x3e1482f0	0.14503074
108	0x3e8b6626	0.2722637
109	0xbcd5b959	-0.026089357
110	0xbe9fe3ae	-0.31228393
111	0xbe521550	-0.20515943
112	0xbe909918	-0.282418
113	0xbd82258a	-0.06354816
114	0xbe22d087	-0.1589986
115	0xbe897bd3	-0.26852283
116	0xbcea3b54	-0.028592743
117	0xbe798621	-0.24367572
118	0xbe1ad228	-0.15119231
119	0x3e2dc0bf	0.16968058
120	0xbe0ed87b	-0.13949768
121	0xbe6d0a29	-0.23148407
122	0xbe36b8d0	-0.17843938
123	0x3e7edf2c	0.24889821
124	0xbe96f0b9	-0.29480532
125	0x3c11cb60	0.008898586
126	0xbc8c1131	-0.017098041
127	0xbe92e8a6	-0.28693122
128	0xbec298ed	-0.38007298
129	0xbea46786	-0.32110232
130	0xbd0d96e5	-0.034567732
131	0xbe508bfb	-0.20365898
132	0x3dc67d29	0.09691841
133	0x3e3a4056	0.18188605
134	0x3d3a9799	0.04555473
135	0xbc6f8b6a	-0.014620641
136	0xbe31dd67	-0.17369615
137	0xbdfc1f6e	-0.12310682
138	0x3d84397e	0.06456278
139	0x3d3dbeaf	0.04632443
140	0xbe2d7b71	-0.1694162
141	0x3dac71bb	0.0842013
142	0x3d3fba28	0.04680839
143	0xbe59a75a	-0.21255246
144	0x3e5a2994	0.21304923
145	0x3e308675	0.17238791
146	0xbf0133f2	-0.5046989
147	0x3dc2aa87	0.09505182
148	0xbdfb7cc7	-0.12279659
149	0xbef73570	-0.48282957
150	0x3da4743a	0.08029981
151	0xbd8caabb	-0.06868502
152	0xbe71fc8b	-0.23631494
153	0xbe2254df	-0.15852688
154	0x3db065d5	0.08613173
155	0x3e67faec	0.22654313
156	0xbdcb7791	-0.09934915
157	0x3b83560b	0.00400806
158	0x3dad0283	0.08447745
159	0x3d6af1aa	0.057359375
160	0x3e5963e7	0.21229516
161	0x3e19985d	0.14999528
162	0xbdb87753	-0.09007134
163	0x3dc94c88	0.0982905
164	0xbd9225b7	-0.071361
165	0xbee2c2c9	-0.44289234
166	0x3e24bfc0	0.16088772
167	0xbd3029b8	-0.043008536
168	0xbe097ae5	-0.13425787
169	0x3d557e9a	0.05212269
170	0x3e1272e7	0.14301644
171	0x3e909627	0.28239557
172	0x3d4cbccd	0.049984742
173	0x3e2eb78f	0.1706221
174	0x3e25908d	0.16168423
175	0x3db945a4	0.09046486
176	0x3d918ae6	0.07106571
177	0x3e284389	0.16432013
178	0xbd054097	-0.0325323
179	0x3da61c3e	0.081108555
180	0x3d9cc889	0.076554365
181	0xbdeab146	-0.114595935
182	0x3df73eb3	0.12072506
183	0xbe3d74ef	-0.18501638
184	0xbb52146e	-0.0032055634
185	0xbc2538ca	-0.01008434
186	0xbcd48120	-0.025940478
187	0x3dfe6f38	0.12423557
188	0x3dc68cbd	0.096948124
189	0x3cb42c47	0.02199377
190	0xbc91de52	-0.017806206
191	0x3b792c43	0.0038020767
192	0x3dd9fa55	0.1064345
193	0xbd97e53c	-0.0741677
194	0xbe8ca6a1	-0.27470878
195	0x3df1fbad	0.118155815
196	0x3afbd5cc	0.0019213497
197	0xbe4dd027	-0.20098935
198	0xbe428e33	-0.18999557
199	0xbecf7261	-0.40516952
200	0xbb582e35	-0.0032986526
201	0x3db028da	0.08601542
202	0xbd999ac9	-0.07500226
203	0x3d0cf48c	0.034412906
204	0xbeb1e10d	-0.34742013
205	0xbe9a0cf8	-0.3008802
206	0xbf13f56d	-0.57796365
207	0xbe271482	-0.16316417
208	0xbdf17dba	-0.117915586
209	0x3d2ce59e	0.042211168
210	0xbe4929c0	-0.19644833
211	0xbd6b215d	-0.057404865
212	0x3d317fdc	0.043334827
213	0xbe9dea92	-0.30843025
214	0xbda5aa11	-0.08089078
215	0xbefd19f2	-0.49433857
216	0xbc534ec4	-0.012897197
217	0xbd5fb9d1	-0.054620568
218	0xbddccb9b	-0.10781022
219	0x3cd14064	0.0255434
220	0xbc5e54e5	-0.013570045
221	0xbd60d806	-0.054893516
222	0xbeffe9b3	-0.49982986
223	0xbe7b1484	-0.24519545
224	0x3d8a072e	0.06739651
225	0xbb87d19d	-0.004144861
226	0xbe3e8758	-0.18606317
227	0xbdcb4d48	-0.099268496
228	0x3dae7639	0.08518643
229	0xbdfc9060	-0.12332225
230	0x3e178ed7	0.14800583
231	0xbefaa84c	-0.48956525
232	0x3df91cc9	0.121636935
233	0xbc99d1df	-0.018776832
234	0xbdcbc4ec	-0.09949669
235	0x3dd5873a	0.10426183
236	0x3d2b8293	0.041872572
237	0x3cb87754	0.022517838
238	0xbf1423ad	-0.57866937
239	0xbe05ddf0	-0.13072944
240	0xbdf3009d	-0.11865351
241	0xbe054a55	-0.13016637
242	0x3dd1c36e	0.102423534
243	0x3dca7888	0.09886271
244	0x3cf4ec79	0.029897915
245	0xba803c02	-0.0009783509
246	0xbe345c65	-0.1761337
247	0xbe77df72	-0.24206331
248	0x3e10a822	0.14126638
249	0xbcd4008d	-0.025879169
250	0xbdbb2a59	-0.091389365
251	0xbe5ac41b	-0.21363871
252	0x3c9a9b1d	0.018872792
253	0x3d5be9ec	0.053689882
254	0xbeb0a78c	-0.34502828
255	0xbe660fe4	-0.22467

sequential_2/conv2d_5/Conv2D f4 [64, 3, 3, 32]
0	0xbd8fc3a0	-0.070197344
1	0x3ddbf0f5	0.10739318
2	0xbdc46d3f	-0.095911495
3	0x3dd7038d	0.10498724
4	0x3dd97645	0.10618261
5	0xbe25ce4f	-0.16191982
6	0x3d8797ce	0.06620751
7	0xbe5dfd12	-0.2167857
8	0xbe265d94	-0.16246635
9	0xbd40377a	-0.046927907
10	0x3e7c4bc1	0.24638273
11	0xbda44eab	-0.08022817
12	0xbe7a87a9	-0.24465813
13	0x3de221a8	0.11041576
14	0x3e0bcb21	0.13651706
15	0x3d85caeb	0.06532844
16	0x3d0378ad	0.032097507
17	0xbc7ed28c	-0.015553128
18	0xbd517e78	-0.051146
19	0xbd7ec4a1	-0.06219924
20	0x3e1ad50a	0.1512033
21	0xbdb6e214	-0.0892984
22	0x3d3594e8	0.04433146
23	0x3e57b297	0.2106422
24	0x3e803fb2	0.25048596
25	0xbd5bf4f6	-0.05370041
26	0x3d8bc5a3	0.068248056
27	0xbe8c80c3	-0.27441987
28	0xbe06d720	-0.13168001
29	0xb8df73f8	-0.000106550695
30	0xbe1d1a1e	-0.15341994
31	0xbe38b823	-0.18038993
32	0x3d25e560	0.040501952
33	0xbcea9352	-0.0286347
34	0x3dc986c2	0.09840156
35	0xbe87864a	-0.26469642
36	0x3dd10e2e	0.10207783
37	0xbe893c6f	-0.2680392
38	0x3da118f5	0.07866088
39	0x3d316da0	0.043317437
40	0xbe3cb590	-0.18428636
41	0x3dc6ce29	0.09707291
42	0xbd7d3938	-0.061822146
43	0x3dcc75a8	0.09983379
44	0xbd60da0d	-0.05489545
45	0x3e59a015	0.21252473
46	0x3dd8924a	0.105747774
47	0xbe48e928	-0.19620192
48	0xbd080d64	-0.033215895
49	0x3e20f6e1	0.15719177
50	0xbe048f21	-0.12945224
51	0xbd0d11db	-0.034440856
52	0xbd85de16	-0.065365
53	0x3d2ffc6e	0.042965345
54	0x3de49673	0.111615084
55	0x3dfb8bc7	0.1228252
56	0x3dc24c3b	0.09487196
57	0x3c92b60f	0.017909078
58	0x3e5db536	0.21651158
59	0xbe52b090	-0.20575166
60	0x3d05ac0a	0.032634772
61	0x3dc066af	0.09394585
62	0xbd06cc67	-0.032909777
63	0xbd9fdcba	-0.07805772
64	0x3db9d198	0.0907318
65	0x3dee684d	0.116409875
66	0x3e5f1626	0.21785793
67	0x3dc76b06	0.0973721
68	0x3b9ee133	0.004848623
69	0x3ddf18de	0.10893415
70	0xbcac9ca8	-0.021070793
71	0xba4fba48	-0.00079241814
72	0x3c2de9ea	0.0106148515
73	0xbd96693b	-0.0734429
74	0xbd8cd680	-0.0687685
75	0x3dddd644	0.108318835
76	0x3e1b30dc	0.15155357
77	0xbe163ab5	-0.14670832
78	0x3d013eb6	0.031553946
79	0xbcd6fd8d	-0.02624395
80	0x3b9be1e3	0.0047571524
81	0x3ded757b	0.11594673
82	0xbd7280eb	-0.059204977
83	0xbd06f449	-0.032947812
84	0x3c90b24d	0.017663145
85	0x3e348971	0.17630555
86	0x3cbf4f94	0.023353375
87	0xbe35d609	-0.17757429
88	0x3e124122	0.14282659
89	0xbc563a7b	-0.013075466
90	0x3cf12509	0.029436605
91	0x3c37ff67	0.011230326
92	0xbddb896e	-0.10719572
93	0xbe3f3381	-0.18671991
94	0x3d97a3ad	0.074042656
95	0x3d93b94e	0.072130784
96	0xbe3b0d48	-0.18266785
97	0xbd9f84d8	-0.0778901
98	0x3d95df99	0.073180385
99	0xbdccc7d9	-0.099990554
100	0xbd611fb8	-0.05496189
101	0xbdf4545e	-0.11930154
102	0xbd6f15e1	-0.058370475
103	0xbd5707ec	-0.05249779
104	0x3c8c3638	0.017115697
105	0xbe1396c6	-0.14412984
106	0x3e0ae66f	0.13564466
107	0xbd8a0761	-0.06739689
108	0xbe800b03	-0.250084
109	0xbe461172	-0.19342592
110	0xbd1cff1e	-0.038329236
111	0x3e0788d7	0.13235794
112	0x3e1d671a	0.15371361
113	0xbd98d0fe	-0.07461737
114	0x3b74e78d	0.003736946
115	0x3d6223f7	0.05521008
116	0xbd864d43	-0.06557705
117	0x3e13edfa	0.1444625
118	0xb9d2b2f5	-0.00040187655
119	0x3d883f09	0.06652648
120	0x3dd26ec3	0.10275032
121	0xbc944cef	-0.018103091
122	0xbe83fbb6	-0.25777978
123	0xbdfd2fce	-0.12362634
124	0xbd9a5fb4	-0.07537785
125	0x3c776cbd	0.015101609
126	0xbd2f991c	-0.042870626
127	0x3e4cf24e	0.20014307
128	0xbdc703ba	-0.09717508
129	0x3d9f1f8b	0.07769688
130	0xbe165d7f	-0.14684103
131	0xbebb8500	-0.36624908
132	0x3d9ea1c6	0.077456996
133	0xbe69eee0	-0.2284503
134	0xbc9281d8	-0.01788418
135	0xbe0dadf6	-0.13835892
136	0xbd90f7db	-0.07078525
137	0xbdc91da7	-0.09820109
138	0xbbd7ba1b	-0.006583465
139	0xbd206a83	-0.039164077
140	0xbe301f80	-0.17199516
141	0x3cdd64f7	0.027025683
142	0xbd3b65f6	-0.045751534
143	0x3d0ca166	0.03433361
144	0x3e3cd912	0.18442181
145	0x3d8d2d84	0.06893447
146	0xbe539ef4	-0.20666105
147	0x3dcf2731	0.10114897
148	0x3ddee5ba	0.108836606
149	0xbe712d09	-0.23552336
150	0x3dd64c98	0.10463828
151	0x3e028964	0.12747723
152	0xbdf99e3e	-0.121883854
153	0x3e0e9799	0.13925017
154	0xbc706550	-0.014672592
155	0x3d87c246	0.066288516
156	0xbadc9746	-0.0016829751
157	0xbc3654e9	-0.011128643
158	0xbdd4a032	-0.10382117
159	0xbd903987	-0.070422225
160	0x3d9b3584	0.07578567
161	0x3df18d16	0.11794488
162	0xbe487e56	-0.19579443
163	0xbdb2d515	-0.087320484
164	0x3c2541d7	0.010086498
165	0xbdab64aa	-0.083688095
166	0x3d831e57	0.06402271
167	0xbddea358	-0.10870999
168	0xbde6bc0f	-0.11266338
169	0x3ddb0dba	0.106959775
170	0xb9c9b118	-0.00038469653
171	0x3c9731d0	0.01845637
172	0xbd9ae2c2	-0.07562782
173	0x3c8b75e1	0.017023982
174	0x3c7358d4	0.014852721
175	0xbdb8478a	-0.0899802
176	0xbdc228bb	-0.09480425
177	0x3c2ffe92	0.010741847
178	0xbe1f23bc	-0.15540975
179	0xbe11a6f5	-0.14223845
180	0xbdcc80c5	-0.09985498
181	0xbce53fed	-0.027984584
182	0x3d0a0268	0.0336937
183	0x3dbe7e31	0.09301413
184	0xbe34098e	-0.1758177
185	0x3e2bff7d	0.1679668
186	0xbd0a71eb	-0.033800047
187	0xbe54393d	-0.2072496
188	0x3d327c29	0.04357544
189	0x3d074269	0.033022318
190	0x3d7ee38b	0.06222872
191	0xbe574e0f	-0.2102587
192	0xbd1eb3c4	-0.038745657
193	0xbdea4143	-0.11438229
194	0x3e2316e4	0.15926701
195	0xbd8d3103	-0.06894114
196	0x3b80434a	0.0039142715
197	0x3e03a646	0.12856397
198	0xbcdf8bd5	-0.027288357
199	0x3e086996	0.13321528
200	0x3e8a2ebe	0.26988786
201	0xbd28a7f0	-0.041175783
202	0x3d57a154	0.05264409
203	0x3d275ba6	0.040858887
204	0xbd128b9b	-0.03577767
205	0xbdb91f1c	-0.09039137
206	0xbdb8177f	-0.089888565
207	0xbd831860	-0.064011335
208	0x3d59078b	0.05298571
209	0xbd8709e1	-0.06593681
210	0xbd9a3b28	-0.075308144
211	0x3dacfe1d	0.08446906
212	0xbd493604	-0.04912378
213	0xbd9d38b9	-0.076768346
214	0xbe68cdcf	-0.2273476
215	0x3d2a4582	0.041570194
216	0x3d117ca6	0.035519265
217	0xbdedb24e	-0.116062745
218	0x3ca30f5e	0.019904789
219	0x3d893a52	0.06700577
220	0xbd9e1b43	-0.077200435
221	0x3e5b191a	0.21396294
222	0x3d9b3706	0.07578854
223	0x3e0182f0	0.12647605
224	0xbe7c077b	-0.24612229
225	0xbcbdb93d	-0.023159618
226	0x3ce8b249	0.028405325
227	0xbe88d3b2	-0.2672401
228	0xbb0d8214	-0.0021592425
229	0x3dbaa656	0.09113757
230	0xbe66b14e	-0.22528574
231	0x3d441a58	0.047876686
232	0x3d645387	0.05574372
233	0x3c1a2f99	0.009410762
234	0x3d19024c	0.037355706
235	0xbe14cf59	-0.14532222
236	0xbe4c87de	-0.19973704
237	0xbe6f10cb	-0.2334625
238	0xbe11bea3	-0.14232878
239	0xbd813671	-0.06309212
240	0x3dd07446	0.101784274
241	0xbe38263a	-0.17983332
242	0xbd706944	-0.05869414
243	0xbc412502	-0.0117886085
244	0xbde877e0	-0.11350989
245	0xbbf8afb7	-0.007589306
246	0xbe84604b	-0.25854716
247	0xbd04bc4d	-0.03240614
248	0xbd92e539	-0.07172627
249	0xbce840e6	-0.028351258
250	0xbe5a68de	-0.21329066
251	0x3cd6d0ad	0.026222551
252	0xbde8d75a	-0.113692
253	0x3bf9f625	0.0076282197
254	0xbe46b8c5	-0.19406421
255	0x3e46216c	0.19348687

sequential_2/outputs/BiasAdd/ReadVariableOp f4 [10]
0	0xbdde5a73	-0.108570956
1	0x3e0b3062	0.13592675
2	0xbe10cdec	-0.14141053
3	0x3d843a99	0.06456489
4	0x3d0b7883	0.034050476
5	0xb98863f4	-0.00026014412
6	0xbdb6827b	-0.08911606
7	0x3ac1fc82	0.0014799985
8	0x3dcbee0c	0.09957513
9	0x3d1ca58c	0.038243815

sequential_2/dense_2/BiasAdd/ReadVariableOp f4 [128]
0	0x3df85201	0.12125016
1	0xbce9c7b9	-0.028537618
2	0x3ddb87da	0.10719271
3	0xbd0f1c79	-0.034939263
4	0x3c99c632	0.018771265
5	0xbc99bb51	-0.018766077
6	0x3e17b116	0.14813647
7	0xbc83dea8	-0.016097382
8	0xbb76946f	-0.0037625094
9	0xb9ee35bc	-0.00045434933
10	0xbcd7de77	-0.026351197
11	0x3b20f848	0.002456205
12	0x3c7b6144	0.015343014
13	0x3d81ca42	0.06337406
14	0x3daa9a80	0.0833025
15	0x3d8694da	0.0657136
16	0x3c016dd0	0.0078997165
17	0xbcc3e94b	-0.023914954
18	0x3baa25be	0.0051924875
19	0xbc4f1275	-0.012638678
20	0x3dc0ba88	0.09410578
21	0xbd00c910	-0.03144175
22	0xbe090818	-0.13381994
23	0xbe34c7bc	-0.17654318
24	0xbdc26f41	-0.09493876
25	0xbbaa4a9c	-0.0051968824
26	0xbc3e9132	-0.011631297
27	0xbacc0e37	-0.0015568201
28	0xbdc0ddbf	-0.09417295
29	0x3d30e467	0.04318657
30	0xbcef5d2c	-0.029219232
31	0xbd8127e9	-0.063064404
32	0xbc6547c0	-0.013994157
33	0x3db745eb	0.08948883
34	0x3cb1a833	0.021686649
35	0x3af1c6a8	0.0018446045
36	0xbda07194	-0.07834163
37	0xbdee1969	-0.1162594
38	0x3de06009	0.10955817
39	0x3d4a29d3	0.049356293
40	0xbcdb1532	-0.026743505
41	0xbd11b837	-0.03557607
42	0x3d6b2386	0.057406925
43	0xbd0f38a0	-0.03496611
44	0xbd2d2029	-0.042267
45	0xbce3d712	-0.027812514
46	0xbd7bb75c	-0.061454162
47	0xbd01e47d	-0.031712044
48	0xbd25820a	-0.040407218
49	0xbd2d7171	-0.042344514
50	0xbce8b6f4	-0.028407551
51	0x3da0828d	0.078374006
52	0xbd2ca14d	-0.042146016
53	0xbdc875ca	-0.097880915
54	0xbd4e24a1	-0.0503279
55	0xbd52e11d	-0.051484216
56	0x3d3df9b4	0.046380714
57	0x3dc49471	0.095986255
58	0xbd825113	-0.0636312
59	0xbdbcfc98	-0.09227866
60	0xbcf74a21	-0.030186715
61	0xbd2c083b	-0.042000037
62	0xbd25c648	-0.0404723
63	0xbe0b5d73	-0.13609867
64	0x3d67790e	0.05651193
65	0x3e0ab736	0.13546452
66	0xbc33341f	-0.01093772
67	0x3d6f737e	0.05845975
68	0x3dbf8a84	0.09352592
69	0xbd1526b4	-0.036413863
70	0xbd87f686	-0.066388175
71	0xbb9d6562	-0.0048033455
72	0x3c85a591	0.0163143
73	0xbdd9e759	-0.10639829
74	0xbde4cc6a	-0.111718014
75	0xbdd05d97	-0.10174101
76	0x3c6455ed	0.013936502
77	0xbdc37dd4	-0.09545484
78	0x3db1b161	0.086764105
79	0xbdc73aaa	-0.09727986
80	0x3c8de4bb	0.017320981
81	0xbd834703	-0.06410029
82	0x3dfed68d	0.12443266
83	0x3d529a6b	0.051416796
84	0xbde31d2b	-0.11089548
85	0xbc2f184f	-0.010686948
86	0x3dcee09c	0.101014346
87	0xbc430d11	-0.011904971
88	0xbd8027f2	-0.06257619
89	0xbd9fbce1	-0.07799698
90	0x3ca22e06	0.019797336
91	0x3e03793c	0.12839216
92	0x3dcd131e	0.10013412
93	0x3add0ca3	0.0016864728
94	0x3ccb3ec2	0.024810199
95	0xbb3a94ca	-0.0028470033
96	0x3db71772	0.08940019
97	0x3d4ef9ad	0.050531078
98	0xbe30f26b	-0.17279975
99	0xbb705418	-0.0036671218
100	0x3ce1fb2a	0.027585585
101	0x3d18e5dd	0.03732859
102	0x3cdcdf99	0.026962088
103	0x3db5588c	0.088547796
104	0x3cddccd2	0.027075205
105	0xbd89d3f4	-0.0672988
106	0xbd837b34	-0.064199835
107	0xbc8224d5	-0.015886704
108	0xbe15fff3	-0.14648418
109	0x3c804c8a	0.015661497
110	0xbc197d9a	-0.009368325
111	0x3c151f44	0.009101693
112	0x3d921a0b	0.071338736
113	0xbdf5bd00	-0.119989395
114	0x3cf5e1a5	0.030014822
115	0x3d531dad	0.051541973
116	0x3d168257	0.036745396
117	0xbc8f5ab4	-0.017499305
118	0xbc3c099f	-0.011476903
119	0xbd99683a	-0.07490583
120	0x3dace901	0.084428795
121	0xbc57e0cb	-0.013176153
122	0x3d9149ac	0.0709413
123	0xbe10fa9e	-0.14158103
124	0x3b28bce9	0.0025747365
125	0x3c3a895a	0.011385286
126	0xbce505d6	-0.027956884
127	0x3e5525f6	0.20815262

sequential_2/dense_2/MatMul f4 [128, 576]
0	0xbdff8ac3	-0.124776386
1	0x3d88cfd0	0.06680262
2	0xbe317d9e	-0.17333075
3	0xbec7e5f9	-0.39042643
4	0xbe079c5c	-0.1324324
5	0xbe8775a2	-0.26456934
6	0xbe063726	-0.13106975
7	0x3e06cbdf	0.13163708
8	0x3dbdb029	0.092621155
9	0xbe888250	-0.2666192
10	0x3de4e3b3	0.11176243
11	0x3dec048f	0.11524307
12	0xbe981631	-0.2970443
13	0x3d12d3d6	0.035846554
14	0xbe283292	-0.16425541
15	0xbe87abab	-0.2649816
16	0xbd6a104e	-0.057144456
17	0x3bde7e49	0.0067899567
18	0xbe341fb0	-0.17590213
19	0xbdea4d68	-0.11440545
20	0x3d36e967	0.044656184
21	0xbe5beb43	-0.21476464
22	0x3ae7d757	0.0017688078
23	0xbe44c89b	-0.1921715
24	0x3dd5a97d	0.10432718
25	0x3e82d024	0.25549424
26	0x3adfbb94	0.0017069452
27	0xbe1823f8	-0.14857471
28	0xbd5c670c	-0.05380921
29	0x3e4363a0	0.19080973
30	0x3da115a3	0.07865455
31	0xbd8705c5	-0.06592897
32	0x3cdadbd1	0.026716145
33	0xbe4cdc96	-0.20006022
34	0xbe5e3b0d	-0.21702214
35	0x3bf1ed43	0.00738302
36	0x3d43ac44	0.047771707
37	0xbe468089	-0.1938497
38	0x3d230c87	0.03980687
39	0x3da60f8a	0.081084326
40	0x3d02b630	0.03191203
41	0x3d9f6806	0.07783513
42	0xbd907bc9	-0.0705486
43	0x3eb3450d	0.3501362
44	0xbdaeba31	-0.08531607
45	0xbe2f8fe7	-0.17144738
46	0xbda3d5fa	-0.07999797
47	0xbf028006	-0.509766
48	0xbe11ac84	-0.14225966
49	0xbdf3c070	-0.11901939
50	0xbeb734ce	-0.35782474
51	0xbe0a8559	-0.1352743
52	0xbe39c747	-0.18142425
53	0x3d14971d	0.036276925
54	0xbcbe1e9d	-0.023207957
55	0xbe688df4	-0.22710401
56	0xbdb3df82	-0.08782865
57	0xbe4a91d8	-0.19782197
58	0xbbfa15fa	-0.0076320143
59	0x3e8415aa	0.25797778
60	0xbe40cc96	-0.18828043
61	0xbd20a993	-0.03922422
62	0xbe97f2ce	-0.29677433
63	0x3c183f73	0.009292471
64	0x3df65896	0.12028615
65	0x3c23b8c3	0.009992781
66	0xbe15b111	-0.14618327
67	0xbe52df86	-0.2059308
68	0x3c55e779	0.013055676
69	0xbdc64330	-0.09680784
70	0xbd74831a	-0.05969534
71	0x3c4ffeeb	0.0126950545
72	0x3ceae34c	0.028672837
73	0xbd9f9e58	-0.077938735
74	0xbcb2e35d	-0.02183693
75	0xbdb1c00d	-0.08679209
76	0x3ca752aa	0.02042516
77	0x3dd49e52	0.1038176
78	0xbe837fe1	-0.256835
79	0xbe1225f4	-0.1427229
80	0x3d07d505	0.033162136
81	0x3d8cbcf0	0.068719745
82	0xbdb8e847	-0.090286784
83	0xbd3f6985	-0.04673149
84	0xbd73b692	-0.059500284
85	0xbe8e3c5a	-0.2778042
86	0xbe3c365c	-0.18380111
87	0xbe132bfb	-0.14372246
88	0x3d46867d	0.0484681
89	0x3dbdd87b	0.09269806
90	0xbd890573	-0.066904925
91	0xbe1ef26c	-0.15522164
92	0x3c070b5e	0.008242456
93	0x3a488605	0.0007649365
94	0x3e3d83c2	0.18507293
95	0xbe3b2363	-0.18275218
96	0xbe186cb4	-0.14885217
97	0x3e3b2567	0.18275987
98	0xbd834420	-0.06409478
99	0x3ce5f8f5	0.028072814
100	0xbdd4c1be	-0.10388516
101	0x3d3fa940	0.04679227
102	0xbdc6ed8d	-0.09713278
103	0x3dfd4dd6	0.12368362
104	0x3e9a266f	0.30107448
105	0x3e0785b2	0.13234594
106	0xbdef9a7c	-0.116993874
107	0x3e04e798	0.12978971
108	0x3c25f9af	0.01013033
109	0x3e2e6219	0.17029609
110	0x3ea1f962	0.31635576
111	0x3ce6d87e	0.028179403
112	0xbe1d7664	-0.15377194
113	0xbceedc6b	-0.029157838
114	0xbe40d733	-0.18832092
115	0x3d2d84fc	0.042363152
116	0xbdc99833	-0.09843483
117	0x3c39763d	0.011319694
118	0x3df2e489	0.11859996
119	0xbe2aab68	-0.16666949
120	0x3e6849c1	0.22684385
121	0xbe65f380	-0.22456169
122	0x3e0b2080	0.13586617
123	0xbd1c7126	-0.038193844
124	0xbde724db	-0.112863265
125	0x3dec0ef6	0.11526291
126	0x3e2a7d03	0.1664925
127	0xbcfc2b6c	-0.030782424
128	0x3e3bf8d0	0.18356633
129	0x3d14fccc	0.0363739
130	0xbdd9ecfb	-0.106409036
131	0xbdb759e6	-0.08952694
132	0x3cda1f4d	0.026626254
133	0xbdb0e3ae	-0.086371765
134	0xbd5b627d	-0.053560723
135	0xbda8c45e	-0.08240579
136	0x3d7217ad	0.05910461
137	0x3d7647ad	0.06012695
138	0xbe12bf2a	-0.14330736
139	0x3d870fa0	0.06594777
140	0xbd28d5f4	-0.041219667
141	0xbe5db2ff	-0.21650313
142	0xbe9678b9	-0.2938898
143	0xbe441933	-0.19150238
144	0x3defcd16	0.11709039
145	0xbe15c3c9	-0.14625467
146	0x3d7bd3fe	0.06148147
147	0x3be9f9c6	0.007140371
148	0xbdf8a64b	-0.12141093
149	0xbcba8b87	-0.02277161
150	0xbe07a638	-0.13247001
151	0xbe435fef	-0.19079565
152	0xbe0e2f4e	-0.13885233
153	0x3d027ec6	0.03185918
154	0xbe540d36	-0.20708165
155	0x3dbf25b7	0.093333654
156	0x3e1765bf	0.14784907
157	0xbe11c14e	-0.14233896
158	0x3b7fe2b9	0.003904505
159	0xbe307ffe	-0.17236325
160	0xbeba61be	-0.36402696
161	0xbcd60993	-0.026127612
162	0xbd9b477e	-0.075819954
163	0xbc33cff2	-0.010974871
164	0xbe8382e3	-0.25685796
165	0xbb6b2f4a	-0.003588634
166	0x3dc6b9f2	0.09703435
167	0xbe8eff07	-0.27928945
168	0x3d807080	0.06271458
169	0x3ca5bc5d	0.02023142
170	0xbe9a3bb2	-0.3012367
171	0x3e194641	0.14968206
172	0x3e4d6cea	0.20061079
173	0x3e684add	0.22684808
174	0xbe6f6edd	-0.23382135
175	0xbde66d2d	-0.112512924
176	0xbcd81703	-0.02637816
177	0xbc6bf025	-0.014400517
178	0x3dad8f0b	0.08474549
179	0x3de65bd5	0.11247984
180	0x3dd449c6	0.10365634
181	0xbe44ba54	-0.19211704
182	0xbc5c1949	-0.013433763
183	0xbe24ebb8	-0.16105545
184	0x3e606a52	0.21915558
185	0xbe357a62	-0.17722467
186	0xbd701cf3	-0.058621358
187	0x3e5b14aa	0.21394601
188	0xbe7dc3c0	-0.24781704
189	0xbdb01de9	-0.08599455
190	0xbd2bef93	-0.041976523
191	0xbcc8ec12	-0.02452663
192	0x3d0389e5	0.03211393
193	0x3e0781fe	0.13233182
194	0xbd90ddb4	-0.070735365
195	0x3b6759d6	0.003530135
196	0x3e633248	0.2218715
197	0x3e575692	0.21029118
198	0x3d191c31	0.0373804
199	0x3d15b5ad	0.036550213
200	0x3d3bd31b	0.045855623
201	0xbe954d92	-0.29160744
202	0x3d27fe5d	0.041014064
203	0x3d3348a0	0.043770432
204	0xbe0ed919	-0.13950004
205	0x3d04fd23	0.032467972
206	0x3c873a81	0.016507389
207	0xbeac8983	-0.33698663
208	0x3d6379e0	0.05553615
209	0x3e8adc3f	0.2712116
210	0xbe975870	-0.2955966
211	0x3d1cb841	0.038261656
212	0x3da16207	0.07880025
213	0x3c2a8bb4	0.010409284
214	0x3e0f7fa9	0.14013542
215	0x3d49ee0b	0.04929928
216	0xbe164a00	-0.14676666
217	0x3d848f6d	0.06472669
218	0x3c1a57c8	0.009420343
219	0xbdeb839a	-0.114997104
220	0x3e375e44	0.17907053
221	0x3c5f4180	0.013626456
222	0x3da4da4b	0.080494486
223	0x3e816364	0.25271142
224	0xbc9377af	-0.018001406
225	0xbd4c4c85	-0.049877662
226	0xbd6a951b	-0.057271104
227	0xbe9e31ef	-0.3089747
228	0x3e1a9b4c	0.15098304
229	0x3de51df1	0.111873515
230	0xbe46fb87	-0.19431888
231	0x3eddc87f	0.4331703
232	0xbd39fbb4	-0.04540606
233	0xbd964468	-0.07337266
234	0x3da6074a	0.08106859
235	0x3e502611	0.20327021
236	0x3e8c1681	0.2736092
237	0xbe726176	-0.23669991
238	0xbe772794	-0.24136192
239	0xbe19f582	-0.1503506
240	0xbe214fc2	-0.15753081
241	0xbe5bf08e	-0.21478483
242	0xbe4af617	-0.19820438
243	0x3b850b70	0.0040602013
244	0x3e2c8d9a	0.16850892
245	0x3c2134ef	0.0098392805
246	0x3d5404a7	0.05176225
247	0xbea8005d	-0.32812777
248	0x3e639d58	0.2222799
249	0xbe5d90d5	-0.2163728
250	0x3d30cc90	0.043163836
251	0xbe875e92	-0.2643934
252	0xbe6668ce	-0.22500917
253	0xbe0f8bb0	-0.1401813
254	0x3c3bcc40	0.011462271
255	0x3d258b86	0.040416263

sequential_2/outputs/MatMul f4 [10, 128]
0	0xb98ba9a4	-0.00026638538
1	0x3e525bf1	0.20542885
2	0x3e3e9dea	0.18614927
3	0x3dc49f6a	0.09600718
4	0x3e1b7470	0.15181136
5	0xbdde1581	-0.10843945
6	0x3de66051	0.1124884
7	0xbe10833c	-0.14112562
8	0xbf124c0f	-0.57147306
9	0x3e4f0b99	0.20219268
10	0xbd3db58c	-0.046315715
11	0xbe537c4b	-0.20652883
12	0x3db27b22	0.08714892
13	0x3e48caff	0.19608687
14	0xbea56d06	-0.3230974
15	0xbeaba111	-0.3352132
16	0xbc9f7ad5	-0.01946775
17	0xbc793dbd	-0.015212473
18	0x3e9995af	0.29997012
19	0xbe1c58e7	-0.15268289
20	0x3e145956	0.14487204
21	0xbe958345	-0.29201713
22	0xbe481147	-0.19537841
23	0x3e02fd00	0.12791824
24	0x3e8384ce	0.2568726
25	0x3d6aa5d5	0.057287056
26	0x3d74f36a	0.05980245
27	0xbcf819dd	-0.03028577
28	0xbe4fe140	-0.2030077
29	0x3e7a2db8	0.24431503
30	0xbe27c55d	-0.16383882
31	0xbdd81c4f	-0.105522744
32	0xbe3a56e0	-0.18197203
33	0xbda229db	-0.079181395
34	0xbb8e41ca	-0.0043413388
35	0xbe4765c4	-0.19472414
36	0x3ba93a86	0.0051644472
37	0x3d47011d	0.048585046
38	0xbec13692	-0.37736946
39	0xbddbde65	-0.10735778
40	0xbe33ec19	-0.17570533
41	0x3e18f844	0.14938456
42	0xbe6e3f32	-0.23266295
43	0xbdc37958	-0.09544629
44	0x3dcb462d	0.09925494
45	0xbe73380c	-0.23751849
46	0xbedc108c	-0.42981374
47	0x3e11c4a4	0.14235169
48	0x3e3ac45e	0.1823897
49	0x3decb1b4	0.11557332
50	0x3dca5f22	0.098814264
51	0xbe572cc4	-0.2101317
52	0x3e4363a8	0.19080985
53	0x3e8eadd0	0.27866983
54	0xbdf692a3	-0.120396875
55	0xbdcdf8c2	-0.100572124
56	0x3e30e592	0.17275074
57	0x3d871656	0.06596057
58	0xbe088cf9	-0.13335027
59	0xbe3b6c56	-0.18303046
60	0x3d9cdcbb	0.076592885
61	0x3e3e8105	0.18603905
62	0x3c06d8b0	0.008230373
63	0xbee26845	-0.44220176
64	0x3def8e34	0.11697045
65	0xbdaae220	-0.08343911
66	0xbea5d747	-0.32390806
67	0xbe9050d8	-0.2818668
68	0xbd489d87	-0.048978355
69	0x3de554af	0.11197793
70	0x3e50eb54	0.2040227
71	0xbe79470b	-0.24343507
72	0xbe44bfbd	-0.19213767
73	0x3e25af9a	0.16180268
74	0x3ded132f	0.115759246
75	0x3e346f34	0.17620546
76	0xbec3199e	-0.38105482
77	0xbe8a9bf7	-0.27072117
78	0xbe7cb803	-0.2467957
79	0xbe106017	-0.14099155
80	0x3cdc8385	0.026918182
81	0xbdc9313b	-0.09823843
82	0xbe0c37a9	-0.13693108
83	0xbeb6c70d	-0.3569874
84	0x3e47dbf2	0.19517496
85	0x3dd9f736	0.10642855
86	0x3ebc83fc	0.36819446
87	0x3e03a273	0.12854938
88	0x3e141113	0.14459638
89	0xbe50f7c2	-0.20407012
90	0xbe615533	-0.22005157
91	0xbecf714c	-0.40516126
92	0xbe180ce5	-0.14848669
93	0x3d3d28e9	0.046181593
94	0xbe065c6b	-0.13121192
95	0xbd5e9276	-0.054338895
96	0x3ddced92	0.107875004
97	0xbea1b650	-0.31584406
98	0x3d4d4e80	0.05012369
99	0xbbfbde6e	-0.007686428
100	0x3deb187e	0.11479281
101	0x3e137de1	0.14403488
102	0x3dcbce0b	0.09951409
103	0xbe1f2e67	-0.15545045
104	0xbe82f6fb	-0.25579056
105	0x3dacb4e0	0.08432937
106	0x3d5d818b	0.05407862
107	0xbdf13990	-0.11778557
108	0xbeb8b1a0	-0.36073017
109	0x3e9a6f13	0.30162868
110	0xbd6a40b3	-0.05719061
111	0xbeb50fa8	-0.35363507
112	0xbefaf74a	-0.49016792
113	0x3d1d52a3	0.038408887
114	0x3e15d193	0.14630727
115	0xbe3e580d	-0.18588276
116	0x3da9c361	0.08289219
117	0xbe2aebc9	-0.16691507
118	0xbe2f7b14	-0.17136794
119	0x3e81b53e	0.2533359
120	0xbea5dcf5	-0.3239514
121	0x3e3b12b0	0.18268847
122	0xbeb576ea	-0.35442287
123	0x3db297e4	0.08720377
124	0x3d3e41e3	0.046449553
125	0x3dc375c5	0.09543947
126	0xbd0788a8	-0.03308931
127	0x3e13c98d	0.14432354
128	0x3e53bd9a	0.20677796
129	0xbec790b8	-0.389776
130	0x3dfab2f2	0.12241162
131	0x3dd0f4fb	0.10202976
132	0xbe2e07e8	-0.16995203
133	0xbd2c762a	-0.042104878
134	0x3e880c73	0.26571998
135	0xbd75efbe	-0.06004309
136	0xbee3221b	-0.44361958
137	0xbe7f7f05	-0.24950798
138	0xbdadde46	-0.08489661
139	0xbeb4f747	-0.35344908
140	0x3d9c0252	0.0761763
141	0x3e496bc9	0.19670023
142	0xbe5702af	-0.20997117
143	0x3c3f413d	0.011673269
144	0x3da44c9e	0.08022426
145	0xbe291196	-0.16510615
146	0x3e58adbc	0.21160024
147	0xbdee6425	-0.11640195
148	0x3e872e94	0.26402724
149	0x3d4208a2	0.047371514
150	0xbe514a8e	-0.20438597
151	0x3db95b20	0.09050584
152	0x3e82f239	0.25575426
153	0xbd80d928	-0.06291419
154	0xbe1e513a	-0.15460673
155	0x3e031766	0.12801895
156	0xbe9cae1c	-0.30601585
157	0x3e415727	0.18880902
158	0x3c26636d	0.010155541
159	0xbe344990	-0.17606187
160	0xbe84ba6b	-0.25923476
161	0x3d9c3a70	0.076283336
162	0xbe34d9bf	-0.17661189
163	0x3df27222	0.11838175
164	0xbe1240bb	-0.14282505
165	0xbe961502	-0.29312903
166	0x3e5c18c2	0.2149382
167	0xbe2ff342	-0.17182639
168	0xbc44afe1	-0.012004823
169	0xbe4db694	-0.2008918
170	0x3dd7452e	0.10511242
171	0xb94c2a74	-0.00019470771
172	0x3e2fc480	0.17164803
173	0x3cfa02af	0.030518858
174	0x3ea3b470	0.319736
175	0xbe02cefe	-0.12774274
176	0xbbbf2390	-0.005833097
177	0xbe2bf7eb	-0.16793792
178	0xbe2b925b	-0.16755049
179	0xbe1ed0a9	-0.15509285
180	0xbe5716b0	-0.21004748
181	0xbd8f3154	-0.069918305
182	0x3e1e6ecd	0.15471955
183	0xbe724b8c	-0.23661631
184	0xbe503ebc	-0.20336431
185	0x3e6dc6e7	0.23220406
186	0x3e32c20d	0.17456837
187	0x3d78d35f	0.060748454
188	0xbe36a1b4	-0.17835122
189	0xbf01bb4d	-0.50676423
190	0xbe039fb4	-0.1285389
191	0xbe9108fe	-0.28327173
192	0xbe4eef3b	-0.20208447
193	0x3e646bf2	0.22306803
194	0xbea28731	-0.31743768
195	0xbd948d27	-0.07253485
196	0x3e2b25f1	0.16713692
197	0xbdec3d33	-0.1153511
198	0x3dafac05	0.08577732
199	0x3e421db5	0.18956645
200	0xbe5de949	-0.21671022
201	0xbbd5313e	-0.0065061143
202	0xbe5d7ff0	-0.21630836
203	0x3da2cec1	0.079495914
204	0xbc9d5d21	-0.019209446
205	0xbe43e147	-0.19128905
206	0xbe5fbe24	-0.21849877
207	0xbe6370a7	-0.22210942
208	0xbdca8811	-0.09889234
209	0x3e7ffbd0	0.24998403
210	0x3dcd15e1	0.10013939
211	0x3e356e5e	0.17717883
212	0xbe8fdd86	-0.28098696
213	0xbd9077c4	-0.070540935
214	0x3e7b4341	0.24537374
215	0xbd05c784	-0.032660976
216	0xbdccf630	-0.10007894
217	0xbd3d4e03	-0.046216976
218	0x3e13767a	0.14400664
219	0x3e0cf1eb	0.1376416
220	0x3e1dbac0	0.1540327
221	0xbe958b42	-0.29207808
222	0x3e60297e	0.21890828
223	0x3d657cb5	0.056027133
224	0x3e0f8e3b	0.140191
225	0x3d756dc1	0.059919123
226	0xbe033262	-0.12812188
227	0xbd7a3bd4	-0.061092213
228	0x3da87d95	0.08227078
229	0xbea97354	-0.330958
230	0xbe80cbb1	-0.25155404
231	0x3e973a97	0.29536888
232	0xbe38c8f6	-0.1804541
233	0x3b892a58	0.004185956
234	0xbe0431b8	-0.12909591
235	0xbe3c6483	-0.18397717
236	0xbe8871a0	-0.2664919
237	0x3eb0aa98	0.34505153
238	0xbd961baa	-0.07329495
239	0xbccaac6e	-0.024740424
240	0xbdc6f5a4	-0.09714821
241	0xbe3013db	-0.17195074
242	0x3e8ad4b0	0.27115393
243	0x3e57b77b	0.21066086
244	0xbe998a61	-0.29988387
245	0x3ea70308	0.326195
246	0xbeabfdb4	-0.33591998
247	0x3ea773ee	0.32705635
248	0x3e4a0e8e	0.19732115
249	0xbdbde6ca	-0.09272535
250	0xbce07290	-0.027398378
251	0xbe82fff9	-0.25585917
252	0x3e7124ad	0.23549147
253	0xbeaa026d	-0.33204976
254	0x3e795d9c	0.24352115
255	0x3e29460c	0.16530627
